{"class_name": "Model", "config": {"name": "model_1", "layers": [{"name": "input_1", "class_name": "InputLayer", "config": {"batch_input_shape": [null, 30], "dtype": "float32", "sparse": false, "name": "input_1"}, "inbound_nodes": []}, {"name": "embedding", "class_name": "Embedding", "config": {"name": "embedding", "trainable": true, "batch_input_shape": [null, null], "dtype": "float32", "input_dim": 2585, "output_dim": 100, "embeddings_initializer": {"class_name": "RandomUniform", "config": {"minval": -0.05, "maxval": 0.05, "seed": null, "dtype": "float32"}}, "embeddings_regularizer": null, "activity_regularizer": null, "embeddings_constraint": null, "mask_zero": false, "input_length": null}, "inbound_nodes": [[["input_1", 0, 0, {}]]]}, {"name": "lstm", "class_name": "LSTM", "config": {"name": "lstm", "trainable": true, "dtype": "float32", "return_sequences": true, "return_state": true, "go_backwards": false, "stateful": false, "unroll": false, "time_major": false, "units": 300, "activation": "tanh", "recurrent_activation": "hard_sigmoid", "use_bias": true, "kernel_initializer": {"class_name": "GlorotUniform", "config": {"seed": null, "dtype": "float32"}}, "recurrent_initializer": {"class_name": "Orthogonal", "config": {"gain": 1.0, "seed": null, "dtype": "float32"}}, "bias_initializer": {"class_name": "Zeros", "config": {"dtype": "float32"}}, "unit_forget_bias": true, "kernel_regularizer": null, "recurrent_regularizer": null, "bias_regularizer": null, "activity_regularizer": null, "kernel_constraint": null, "recurrent_constraint": null, "bias_constraint": null, "dropout": 0.4, "recurrent_dropout": 0.4, "implementation": 1}, "inbound_nodes": [[["embedding", 0, 0, {}]]]}, {"name": "lstm_1", "class_name": "LSTM", "config": {"name": "lstm_1", "trainable": true, "dtype": "float32", "return_sequences": true, "return_state": true, "go_backwards": false, "stateful": false, "unroll": false, "time_major": false, "units": 300, "activation": "tanh", "recurrent_activation": "hard_sigmoid", "use_bias": true, "kernel_initializer": {"class_name": "GlorotUniform", "config": {"seed": null, "dtype": "float32"}}, "recurrent_initializer": {"class_name": "Orthogonal", "config": {"gain": 1.0, "seed": null, "dtype": "float32"}}, "bias_initializer": {"class_name": "Zeros", "config": {"dtype": "float32"}}, "unit_forget_bias": true, "kernel_regularizer": null, "recurrent_regularizer": null, "bias_regularizer": null, "activity_regularizer": null, "kernel_constraint": null, "recurrent_constraint": null, "bias_constraint": null, "dropout": 0.4, "recurrent_dropout": 0.4, "implementation": 1}, "inbound_nodes": [[["lstm", 0, 0, {}]]]}, {"name": "lstm_2", "class_name": "LSTM", "config": {"name": "lstm_2", "trainable": true, "dtype": "float32", "return_sequences": true, "return_state": true, "go_backwards": false, "stateful": false, "unroll": false, "time_major": false, "units": 300, "activation": "tanh", "recurrent_activation": "hard_sigmoid", "use_bias": true, "kernel_initializer": {"class_name": "GlorotUniform", "config": {"seed": null, "dtype": "float32"}}, "recurrent_initializer": {"class_name": "Orthogonal", "config": {"gain": 1.0, "seed": null, "dtype": "float32"}}, "bias_initializer": {"class_name": "Zeros", "config": {"dtype": "float32"}}, "unit_forget_bias": true, "kernel_regularizer": null, "recurrent_regularizer": null, "bias_regularizer": null, "activity_regularizer": null, "kernel_constraint": null, "recurrent_constraint": null, "bias_constraint": null, "dropout": 0.4, "recurrent_dropout": 0.4, "implementation": 1}, "inbound_nodes": [[["lstm_1", 0, 0, {}]]]}], "input_layers": [["input_1", 0, 0]], "output_layers": [["lstm_2", 0, 0], ["lstm_2", 0, 1], ["lstm_2", 0, 2]]}, "keras_version": "2.2.4-tf", "backend": "tensorflow"}